BOTSPOT - VIRTUAL ASSISTANT/BACK END/data.pth (torch, 2903 bytes, 5 tensors)

l1.weight f4 [8, 11]
0	0x3d588718	0.05286321
1	0xbe0c45d5	-0.13698514
2	0x3e0dc8e0	0.13846159
3	0x3e7871f0	0.24262214
4	0xbd20a338	-0.039218158
5	0x3dd92094	0.10601917
6	0x3d3e7460	0.046497703
7	0x3e1f81c0	0.1557684
8	0xbe81ce3e	-0.25352663
9	0x3e55751c	0.20845455
10	0xbe942832	-0.28936917
11	0xbde54aee	-0.11195932
12	0x3e10ae64	0.14129025
13	0x3cbfa410	0.02339366
14	0xbc521780	-0.012822986
15	0x3e1b345a	0.1515669
16	0xbe5eaa5c	-0.21744674
17	0x3e2773fa	0.16352835
18	0x3df045c4	0.11732057
19	0x3e6adbc8	0.22935402
20	0x3d9dda1c	0.07707617
21	0x3e98eff4	0.2987057
22	0xbe7ce3ef	-0.24696325
23	0xbe3b9d81	-0.18321802
24	0x3e62c3e4	0.22145039
25	0x3e06bcdc	0.13157982
26	0xbe4e856c	-0.20168084
27	0xbd318da0	-0.043347955
28	0x3e6b55a0	0.22981882
29	0x3d409bf8	0.047023743
30	0xbc4fd0c0	-0.012684047
31	0xbde9f948	-0.114245
32	0xbe535f4c	-0.20641822
33	0xbe7efc18	-0.24900854
34	0x3e03eca4	0.1288324
35	0xbd3ee1d8	-0.0466021
36	0xbe71e122	-0.23621038
37	0xbb74ca80	-0.0037352145
38	0xbe768806	-0.24075326
39	0x3d86ce24	0.06582287
40	0xbe836e8e	-0.25670284
41	0x3e09ab18	0.13444173
42	0x3deb5100	0.11490059
43	0xbe4fbb3c	-0.20286268
44	0x3e877bb2	0.2646156
45	0x3e0a32ea	0.13495985
46	0x3e31a54c	0.17348212
47	0xbd932f7a	-0.0718679
48	0xbe0a6efe	-0.13518903
49	0x3e515704	0.2044335
50	0xbd8a9646	-0.06766944
51	0x3d81b558	0.06333417
52	0xbb9e2580	-0.0048262477
53	0xbe0105e9	-0.12599911
54	0xbe0d1906	-0.13779077
55	0xbe5fb117	-0.21844898
56	0xbe96af74	-0.29430735
57	0x3e8d0ddc	0.27549636
58	0x3e8be764	0.27324975
59	0x3e823c76	0.25436753
60	0x3e946260	0.28981304
61	0x3ca8ea60	0.020619571
62	0xbdf26044	-0.118347675
63	0xbd9e344a	-0.07724817
64	0x3e4caa54	0.1998685
65	0x3e84ccba	0.25937444
66	0xbd461708	-0.048361808
67	0x3db64e20	0.0890162
68	0xbe5818e3	-0.21103244
69	0xbe8ee92f	-0.2791228
70	0xbe297b7e	-0.16551015
71	0xbd74d0fc	-0.059769616
72	0xbe5800d2	-0.21094063
73	0xbe0f76fc	-0.14010233
74	0xbd2a4478	-0.041569203
75	0xbe358fde	-0.17730662
76	0xbd902bee	-0.07039629
77	0x3d2d2d30	0.042279422
78	0xbe3025bf	-0.17201899
79	0x3e2e6e02	0.17034152
80	0xbe7768de	-0.24161097
81	0xbe8909e8	-0.2676537
82	0x3ab4fb00	0.0013807714
83	0x3e6dce38	0.23223197
84	0xbdf0d5d4	-0.117595345
85	0xbe975843	-0.29559526
86	0x3e58a988	0.21158421
87	0xbdb518fc	-0.08842656

l1.bias f4 [8]
0	0xbe763770	-0.24044585
1	0x3e842ef0	0.2581706
2	0x3d2ede90	0.04269272
3	0xbe17296b	-0.14761893
4	0xbc499b60	-0.012305111
5	0xbe491f54	-0.19640857
6	0xbd0d82c8	-0.03454855
7	0x3e034b00	0.12821579

l2.weight f4 [8, 8]
0	0x3e2fc202	0.17163852
1	0xbdb44a5c	-0.088032454
2	0xbe996a5d	-0.2996396
3	0xbe1a66fe	-0.15078351
4	0x3e8f078f	0.27935454
5	0xbe2d220f	-0.16907524
6	0x3ea1e6eb	0.3162149
7	0x3e035a8e	0.12827513
8	0xbd77a378	-0.06045863
9	0x3eb19fcf	0.34692237
10	0x3d86de90	0.06585419
11	0x3ea1b933	0.31586608
12	0xbe5bf27e	-0.21479222
13	0x3e37c252	0.17945221
14	0xbe485014	-0.19561797
15	0x3dab3910	0.08360493
16	0x3e67c526	0.226338
17	0xbe677c28	-0.22605956
18	0xbe470700	-0.19436264
19	0xbdf7926c	-0.12088475
20	0xbe2c0ed4	-0.16802531
21	0xbd5d4050	-0.05401641
22	0xbb635f00	-0.0034694076
23	0xbda632c4	-0.081151515
24	0xbcd04ff0	-0.025428742
25	0x3d3aa9c0	0.045572042
26	0x3ea24947	0.3169653
27	0x3d70af38	0.05876085
28	0xbe49cd33	-0.19707184
29	0x3e5962b6	0.21229061
30	0x3e96013d	0.2929782
31	0x3e58c22a	0.21167818
32	0xbe6b6d8c	-0.22991008
33	0x3e2601b2	0.16211584
34	0xbdcf0fd8	-0.10110444
35	0xbe9e030f	-0.3086171
36	0x3c4e9c40	0.012610495
37	0xbd394800	-0.04523468
38	0xbe8f02aa	-0.2793172
39	0xbcbc4640	-0.022982717
40	0x3ea798d1	0.32733777
41	0x3df91a74	0.12163249
42	0x3eb04d43	0.34433946
43	0xbc7b97c0	-0.015356004
44	0x3e6d1ac2	0.23154739
45	0xbe8b455d	-0.27201357
46	0xbde8ed02	-0.11373331
47	0xbd381d08	-0.04494956
48	0x3e369d26	0.17833385
49	0xbc96b2c0	-0.018395782
50	0xbe061066	-0.13092193
51	0xbe920580	-0.2851982
52	0x3e3328ea	0.17496076
53	0xbea1b072	-0.3157993
54	0x3e30aa62	0.17252496
55	0xbcbee380	-0.02330184
56	0x3e76d202	0.24103549
57	0x3bdb74c0	0.0066972673
58	0x3e594b02	0.2122002
59	0x3de1a5f4	0.11017981
60	0x3e8f91fd	0.28041068
61	0xbe51a967	-0.20474778
62	0x3d941ef4	0.07232466
63	0x3ea26c49	0.3172324

l2.bias f4 [8]
0	0x3e8a8a45	0.27058616
1	0xbd916a64	-0.071003705
2	0xbdc1e690	-0.094678044
3	0xbe57976b	-0.21053855
4	0xbe6e62c3	-0.23279862
5	0x3e46730e	0.19379827
6	0xbe7992ad	-0.24372359
7	0x3e0a14c0	0.13484478

l3.weight f4 [1, 8]
0	0x3e6fed4e	0.23430368
1	0x3dd69fc4	0.104796916
2	0xbe58a9ee	-0.21158573
3	0xbe014c14	-0.12626678
4	0xbd70aea0	-0.058760285
5	0x3e69b96e	0.22824642
6	0x3d65f350	0.056140244
7	0x3e977859	0.29584005
